url_relevance.pth (torch_old, 10993 bytes, 5 tensors)

weight f4 [32, 10]
-0.2812982 0.17695826 0.14708361 0.08620509 0.2709534 -0.14001876 -0.24166296 -0.023914682
0.049704198 0.22870642 0.15601227 0.030205637 0.039831795 -0.26858672 0.19014822 -0.11489121
-0.12255112 0.01047574 0.31262183 0.09820968 0.062910885 -0.034483403 -0.2403754 -0.22048812
-0.2510925 -0.006925702 -0.20461753 0.12225127 -0.21590088 -0.21027863 -0.027920777 0.07029435
0.1692592 -0.11143022 0.0016411896 -0.122494966 0.27511725 -0.26029092 0.14610544 -0.22501652
-0.25431585 -0.19372629 -0.27404714 -0.10436766 -0.25573105 -0.043227673 -0.28674895 0.2201601
-0.103617206 -0.30747887 -0.1974013 -0.18694635 0.21668464 0.13021818 0.16636288 0.1576253
-0.16698349 0.3086825 -0.19693759 0.19255783 0.20082705 0.069575965 -0.067253746 0.24825831
-0.2672619 -0.18686296 -0.16669793 0.08465501 -0.17144535 -0.22460929 -0.06406746 -0.11676799
-0.10456829 0.078393966 0.26234087 0.3133355 -0.20459332 0.1951545 0.31003195 0.18805595
0.14571634 -0.031436622 0.09830485 0.20762073 0.07043985 -0.18253706 0.04685921 -0.18093237
0.020568307 -0.16979508 0.009411663 -0.26474503 -0.24589258 -0.17374147 -0.27296367 -0.014597625
0.16382724 -0.2433379 0.00032529235 0.042607844 -0.12645468 0.1006251 -0.1523509 -0.20022413
0.02708897 -0.21445942 0.27842906 -0.049455047 0.28371987 -0.07891297 0.074135065 0.2521179
-0.20252404 -0.13604774 -0.013844669 0.12770626 -0.14781785 -0.039768785 -0.03216526 -0.054627895
-0.20230387 0.15812564 -0.07929583 0.074200824 0.20273444 -0.25047496 0.2201239 0.13284095
-0.07808138 -0.01193374 -0.1556988 0.13219267 0.03915069 0.24191037 0.31805485 -0.0972254
-0.2588222 -0.14062157 0.19022873 0.125125 0.29592475 -0.3014086 0.27587587 0.21110134
0.21718113 0.070868775 -0.11658151 -0.14003529 -0.24854112 -0.08308257 0.22561525 0.23050126
0.1413665 0.02882047 0.24298398 0.2410667 0.121340565 -0.06273462 -0.30214226 0.24678285
0.21998663 0.19955209 -0.058456138 0.31095076 0.2959097 -0.23718384 -0.13997592 -0.1798114
-0.1259435 0.1397688 -0.16037834 0.2820042 -0.30265418 -0.010664761 0.16553369 0.07392132
0.024492145 -0.2823189 0.09266801 -0.039383836 0.08445001 -0.19739966 0.2631998 0.09172976
-0.11944804 -0.26810595 0.100615464 -0.106493935 -0.032261737 -0.20890251 0.009177389 -0.13143867
0.31378514 0.15810035 0.00975856 -0.14886457 0.2046147 -0.09476083 -0.13527836 -0.12957884
-0.30003574 0.16037539 -0.17373772 0.15812351 -0.17568992 0.12127366 0.10828403 0.27867517
0.0330984 -0.16404544 -0.023008998 0.01118359 -0.25478062 -0.21684283 -0.008195132 -0.13439286
-0.3108162 -0.29965144 0.30589792 -0.01988769 -0.26951173 0.27321842 0.043577865 -0.30163822
0.035428267 0.28489196 0.3094352 -0.09047271 -0.17517726 0.14778922 -0.2889186 -0.08704054
-0.04940203 -0.21123426 0.030152738 0.17635968 0.20596954 -0.0896495 -0.098351315 -0.12266809
-0.14243032 0.019697964 0.1709104 -0.19110362 -0.23211646 0.2496783 0.20804211 0.09573364
-0.03856274 -0.021029156 0.18743195 0.30288175 0.24241671 0.3035121 0.024198264 0.1317283
00000000: 5106 90be 8c34 353e 169d 163e 4b8c b03d
00000010: 67ba 8a3e 1461 0fbe 7f76 77be b9e8 c3bc
00000020: a196 4b3d 0432 6a3e aec1 1f3e d071 f73c
00000030: aa26 233d 3384 89be 37b6 423e 154c ebbd
00000040: 15fc fabd 70a2 2b3c f80f a03e 2822 c93d
00000050: 6cd7 803d 783e 0dbd f824 76be a3c7 61be
00000060: 328f 80be 00f1 e2bb 4287 51be e05e fa3d
00000070: 1f15 5dbe 4853 57be 1dba e4bc 7cf6 8f3d
00000080: 4952 2d3e 8735 e4bd 2f1d d73a a4de fabd
00000090: 2bdc 8c3e da44 85be aa9c 153e bb6a 66be
000000a0: b035 82be 2f60 46be e84f 8cbe b6be d5bd
000000b0: 2eef 82be 800f 31bd c2d0 92be a671 613e
000000c0: 4235 d4bd df6d 9dbe 9123 4abe dd6e 3fbe
000000d0: 94e2 5d3e ea57 053e 085b 2a3e 8768 213e
000000e0: b8fd 2abe a20b 9e3e 02aa 49be e12d 453e
000000f0: 9ba5 4d3e d87d 8e3d 55bc 89bd 6d37 7e3e
00000100: 8dd6 88be 0159 3fbe ddb2 2abe 9b5f ad3d
00000110: 5f8f 2fbe faff 65be cd35 83bd 0e24 efbd
00000120: e627 d6bd 048d a03d 8b51 863e 836d a03e
00000130: e980 51be 95d6 473e 82bc 9e3e bd91 403e
00000140: aa36 153e b0c3 00bd 0e54 c93d 879a 543e
00000150: c542 903d ffea 3abe 71ef 3f3d 5646 39be
00000160: de7e a83c c3de 2dbe 6033 1a3c a98c 87be
00000170: 44cb 7bbe 49e9 31be e5c1 8bbe e02a 6fbc
00000180: 54c2 273e 922d 79be 008c aa39 9085 2e3d
00000190: 567d 01be 8814 ce3d e001 1cbe 8e07 4dbe
000001a0: b0e9 dd3c 409b 5bbe 418e 8e3e 6091 4abd
000001b0: bb43 913e 209d a1bd 20d4 973d 9915 813e
000001c0: 7662 4fbe 1950 0bbe c0d4 62bc 6ec5 023e
000001d0: 905d 17be 98e4 22bd b8bf 03bd 80c1 5fbd
000001e0: bf28 4fbe b0eb 213e da65 a2bd 9af6 973d
000001f0: 9e99 4f3e 413e 80be 2968 613e 7507 083e
00000200: 21e9 9fbd bc85 43bc 826f 1fbe 845d 073e
00000210: 795c 203d 5ab7 773e 16d8 a23e 1c1e c7bd
00000220: 5884 84be 1aff 0fbe 52cb 423e c520 003e
00000230: 7383 973e 3a52 9abe 9a3f 8d3e f32a 583e
00000240: bb64 5e3e a623 913d 49c2 eebd 6965 0fbe
00000250: 9081 7ebe 3227 aabd af07 673e 8608 6c3e
00000260: 61c2 103e e818 ec3c cbd0 783e 30da 763e
00000270: 6781 f83d 027b 80bd 64b2 9abe a5b4 7c3e
00000280: 2d44 613e 6257 4c3e b46f 6fbd f034 9f3e
00000290: 7a81 973e 52e0 72be d955 0fbe 7b20 38be
000002a0: 55f7 00be 8d1f 0f3e 383a 24be db62 903e
000002b0: 7df5 9abe 40bb 2ebc aa81 293e 1064 973d
000002c0: c0a3 c83c 1a8c 90be bac8 bd3d f250 21bd
000002d0: 20f4 ac3d 2323 4abe 20c2 863e d0dc bb3d
000002e0: 2da1 f4bd 2f45 89be 7b0f ce3d 7e19 dabd
000002f0: e224 04bd 8aea 55be c25c 163c dc97 06be
00000300: 72a8 a03e 0fe5 213e 5ee2 1f3c f46f 18be
00000310: 8486 513e f711 c2bd 6986 0abe 51b0 04be
00000320: 499e 99be 7239 243e 4de8 31be 21eb 213e
00000330: 0fe8 33be 535e f83d 04c4 dd3d 83ae 8e3e
00000340: 3092 073d 87fb 27be 5e7d bcbc 603b 373c
00000350: 9b72 82be 0c0c 5ebe e044 06bc 489e 09be
00000360: 4d23 9fbe ea6b 99be a79e 9c3e 82eb a2bc
00000370: 71fd 89be 49e3 8b3e b47e 323d 5370 9abe
00000380: 3b1d 113d 5cdd 913e 4a6e 9e3e c249 b9bd
00000390: ab61 33be 0f56 173e 24ed 93be 5042 b2bd
000003a0: c859 4abd cb4d 58be e002 f73c a297 343e
000003b0: aee9 523e 289a b7bd 6a6c c9bd 6839 fbbd
000003c0: 41d9 11be a05d a13c 2303 2f3e abb0 43be
000003d0: f0af 6dbe abab 7f3e fe08 553e 0010 c43d
000003e0: f7f3 1dbd 5645 acbc 29ee 3f3e 5113 9b3e
000003f0: 163c 783e f065 9b3e 703b c63c c9e3 063e

bias f4 [32]
0.005117772 0.24030909 -0.24090296 0.25958678 -0.10446973 0.2464939 0.04760829 0.0016894346
0.1947746 -0.13424355 -0.11475536 -0.18189375 0.26465663 -0.060043484 0.21912925 -0.26936296
0.28244057 0.033941112 0.29558197 0.113923535 -0.25266728 0.034493003 -0.2769348 0.2485015
-0.21083261 0.19751823 0.18930112 -0.07493811 0.12626474 -0.010531604 0.07558184 -0.199191
00000000: fcb2 a73b 9613 763e 44af 76be 8fe8 843e
00000010: 3af4 d5bd e668 7c3e e900 433d 0570 dd3a
00000020: fe72 473e 2477 09be dc04 ebbd 5b42 3abe
00000030: 1381 873e 28f0 75bd 6b63 603e f1e9 89be
00000040: 0d9c 903e d605 0b3d 8556 973e be50 e93d
00000050: 9b5d 81be 8948 0d3d 66ca 8dbe 2d77 7e3e
00000060: 81e4 57be 3842 4a3e 27d8 413e 2779 99bd
00000070: 8b4b 013e c08c 2cbc a7ca 9a3d baf8 4bbe

weight f4 [32, 32]
0.033166897 -0.06829634 -0.15179314 0.029690873 -0.06966849 0.078034036 -0.1396987 -0.0131366765
-0.17566577 0.15841676 0.07766296 0.17619191 0.07820633 -0.03921268 -0.07773072 -0.13794744
-0.14791186 -0.096859865 -0.03426238 -0.094638005 -0.14263889 -0.13010065 0.17129193 0.038811915
0.08306943 -0.039295215 0.11973783 -0.043523192 -0.04450273 0.029471815 -0.015987905 -0.0015716404
0.12801105 -0.12086864 0.093811646 0.106091544 -0.10844329 -0.175697 -0.15980673 0.10233081
-0.039187957 0.06304565 -0.08296392 -0.15139097 0.08719677 0.03245416 -0.008148997 -0.1018604
0.03698766 -0.022145877 -0.0038446123 -0.016552754 -0.11337108 0.025943419 -0.083501294 0.15486991
0.07138017 0.021193223 -0.07878461 0.16695164 -0.0066940435 0.15746854 -0.052649885 0.019682571
-0.06483637 0.09207781 -0.022874236 -0.10591184 -0.055253863 -0.14486417 0.1202863 -0.13584617
-0.11468163 -0.095915586 0.052504778 -0.10764859 -0.084932536 0.052399337 -0.046587273 -0.15183023
-0.009806603 0.03355387 0.120312706 -0.09831831 -0.04115385 0.11622329 0.12029849 -0.09972937
0.058606923 0.060540766 0.069165066 0.14058645 -0.020635322 0.07446183 -0.15012649 -0.16893058
0.06786976 -0.09703925 0.10662092 0.089629784 -0.14262667 -0.1310024 0.16150974 0.025044998
0.08198906 0.008973151 -0.11585195 -0.17497356 -0.062096473 -0.0928371 -0.14542694 -0.15976039
-0.14182985 0.1615611 0.16239154 -0.11778363 0.034409642 0.080491416 0.10138489 0.08954461
-0.10184611 0.008741074 -0.13339536 0.10791977 -0.17421222 0.13560282 0.00026997575 0.08432372
-0.16238518 -0.16935128 -0.13638476 0.11773812 -0.09338564 0.02719472 0.11053692 0.02012524
-0.16883694 0.11031066 -0.026112586 -0.15856023 -0.13615109 -0.07773793 -0.10065933 0.17069809
0.0908441 0.06436305 0.10174792 0.09018387 -0.032231417 0.16985019 0.018587712 -0.08185024
-0.044190247 -0.0745317 -0.091689125 -0.068430886 -0.03192254 -0.08924399 0.121810764 0.07320383
-0.10286713 0.017730255 -0.03203553 -0.14353964 -0.070405446 0.07122755 0.1138698 -0.16673736
-0.04700919 0.04434575 -0.13599715 -0.16616727 0.08716085 0.014862205 -0.08046687 -0.10578769
0.12721448 0.065189674 0.15889561 -0.091488466 -0.024256855 0.15214424 0.017437413 -0.14914368
0.10880457 0.18189938 -0.008280396 -0.12358387 -0.06212519 0.17297147 -0.14658308 0.091973856
-0.15331513 0.11540032 -0.018327668 0.13968639 0.1608509 0.048715837 0.06501755 -0.07770549
0.0979521 -0.02361226 0.12986667 -0.025932431 0.01567077 -0.06362659 0.14044525 -0.095911376
0.16214891 0.022567065 0.0023048534 0.1286931 0.031825483 -0.0019388498 0.001464789 0.02687347
-0.022588085 0.06773191 0.113002494 -0.06362312 -0.032894902 0.069056496 -0.037347853 -0.16291706
0.078145705 -0.04706389 -0.11305791 -0.11473366 -0.124163434 0.0944863 0.08946146 -0.17273954
-0.14545037 -0.06630481 0.01111722 0.029421613 0.17247309 0.039792012 0.023517068 0.13274646
-0.022382153 -0.033936605 -0.03854077 0.0049934746 -0.10342571 0.07819383 0.04069818 -0.11043774
0.1308558 -0.024443602 -0.1152785 0.031672124 0.1586491 -0.061124854 -0.10570695 0.13041092
00000000: 03da 073d f4de 8bbd a96f 1bbe 463a f33c
00000010: 5aae 8ebd 4fd0 9f3d 2d0d 0fbe 373b 57bc
00000020: bae1 33be 0138 223e c20d 9f3d a76b 343e
00000030: a42a a03d 7a9d 20bd 4931 9fbd 1842 0dbe
00000040: 3576 17be 775e c6bd b656 0cbd 92d1 c1bd
00000050: ee0f 12be 1b39 05be 2767 2f3e 3ef9 1e3d
00000060: 4e20 aa3d 05f4 20bd 1b39 f53d 6045 32bd
00000070: 7f48 36bd e06e f13c 11f9 82bc 80ff cdba
00000080: 5415 033e fa89 f7bd 5220 c03d 8646 d93d
00000090: 8417 debd eae9 33be 60a4 23be d192 d13d
000000a0: 8d83 20bd 141e 813d fde8 a9bd 3c06 1bbe
000000b0: 3894 b23d a7ee 043d 5f83 05bc 2f9c d0bd
000000c0: 5f80 173d 456b b5bc e4f5 7bbb a499 87bc
000000d0: 192f e8bd 4b87 d43c ba02 abbd 3896 1e3e
000000e0: c42f 923d 699d ad3c d359 a1bd 5ff5 2a3e
000000f0: b559 dbbb 6f3f 213e 68a7 57bd 583d a13c
00000100: eec8 84bd 4a93 bc3d c062 bbbc 4fe8 d8bd
00000110: e051 62bd 4657 14be aa58 f63d 421b 0bbe
00000120: 34de eabd 646f c4bd 400f 573d dd76 dcbd
00000130: 1cf1 adbd b0a0 563d 4cd2 3ebd 6279 1bbe
00000140: e0ab 20bc c86f 093d 8266 f63d 1c5b c9bd
00000150: f090 28bd 7a06 ee3d 0e5f f63d e93e ccbd
00000160: d00d 703d 98f9 773d 6aa6 8d3d e5f5 0f3e
00000170: 680b a9bc 727f 983d c2ba 19be 23fc 2cbe
00000180: 4dff 8a3d 84bc c6bd 125c da3d d28f b73d
00000190: ba0c 12be 7e25 06be cf62 253e 2b2b cd3c
000001a0: e1e9 a73d 2004 133c ca43 edbd 452c 33be
000001b0: df58 7ebd 6121 bebd cdea 14be 3a98 23be
000001c0: d83b 11be 4670 253e f849 263e 8b38 f1bd
000001d0: 20f1 0c3d afd8 a43d e2a2 cf3d 2a63 b73d
000001e0: b194 d0bd b936 0f3c cb98 08be 0a05 dd3d
000001f0: b064 32be 77db 0a3e 888b 8d39 eab1 ac3d
00000200: 4d48 26be 6c6a 2dbe 72a8 0bbe af20 f13d
00000210: f840 bfbd 76c7 de3c 2e61 e23d b0dd a43c
00000220: 97e3 2cbe 8eea e13d 10ea d5bc 9d5d 22be
00000230: 316b 0bbe 1035 9fbd 7b26 cebd 7bcb 2e3e
00000240: 790c ba3d c6d0 833d 3761 d03d 52b2 b83d
00000250: 1705 04bd 35ed 2d3e 4245 983c 19a1 a7bd
00000260: d500 35bd 13a4 98bd 82c7 bbbd 7e25 8cbd
00000270: 36c1 02bd 8ec5 b6bd ec77 f93d e4eb 953d
00000280: 00ac d2bd 0a3f 913c b037 03bd 0efc 12be
00000290: bb30 90bd c0df 913d 9234 e93d 33bd 2abe
000002a0: b58c 40bd e4a3 353d d642 0bbe c127 2abe
000002b0: 6381 b23d 9b80 733c d0cb a4bd 37a7 d8bd
000002c0: 8344 023e 2a82 853d 88b5 223e 4e5e bbbd
000002d0: 50b6 c6bc b3cb 1b3e e8d8 8e3c 1fb9 18be
000002e0: eed4 de3d d543 3a3e 80aa 07bc 8a19 fdbd
000002f0: fc76 7ebd 6f1f 313e e019 16be ca5c bc3d
00000300: a4fe 1cbe 0157 ec3d e823 96bc f309 0f3e
00000310: 19b6 243e 428a 473d ec27 853d 0e24 9fbd
00000320: 1c9b c83d 806e c1bc c5fb 043e 4070 d4bc
00000330: fd5f 803c a84e 82bd e1d0 0f3e 2f6d c4bd
00000340: 5d0a 263e 91de b83c 060d 173b 20c8 033e
00000350: 705b 023d 0121 feba 2afe bf3a c025 dc3c
00000360: a60a b9bc 07b7 8a3d da6d e73d d74c 82bd
00000370: cebc 06bd 7e6d 8d3d 10fa 18bd bbd3 26be
00000380: db0a a03d 11c6 40bd e88a e7bd 7bf9 eabd
00000390: 6649 febd 0982 c13d 9237 b73d a2e2 30be
000003a0: f1f0 14be d1ca 87bd 0025 363c 9805 f13c
000003b0: c99c 303e f3fc 223d dea6 c03c b0ee 073e
000003c0: c75a b7bc 1c01 0bbd eddc 1dbd 4da0 a33b
000003d0: dcd0 d3bd 1624 a03d 23b3 263d 2f2d e2bd
000003e0: 10ff 053e f33d c8bc 2217 ecbd a1ba 013d
000003f0: e974 223e 0e5e 7abd e37c d8bd 718a 053e

bias f4 [32]
0.05545132 0.01569235 -0.16676481 0.095009446 0.17980862 -0.029622994 0.13655989 -0.0576153
0.080615684 -0.06421899 0.07771981 0.1559449 -0.017892228 -0.012850642 0.07020982 0.050486673
0.16836502 -0.09290704 -0.053395398 0.11579455 -0.041791286 -0.027206592 0.17068076 -0.0937212
-0.14596605 -0.067502856 -0.1145361 0.056731604 0.08091816 0.1255807 0.08633339 -0.06331327
00000000: ec20 633d 3e8d 803c 65c4 2abe 5094 c23d
00000010: c01f 383e ecab f2bc 5bd6 0b3e 05fe 6bbd
00000020: d619 a53d 3f85 83bd 902b 9f3d 05b0 1f3e
00000030: b992 92bc 808b 52bc 2bca 8f3d 1dcb 4e3d
00000040: e167 2c3e 0c46 bebd 22b5 5abd b125 ed3d
00000050: 572d 2bbd 5ce0 debc f0c6 2e3e e7f0 bfbd
00000060: 2078 15be f03e 8abd e791 eabd 665f 683d
00000070: 6cb8 a53d 3a98 003e 8fcf b03d 63aa 81bd

weight f4 [1, 32]
-0.06526286 0.052328248 0.13387014 0.09161225 0.04482098 0.17340422 -0.060898762 -0.007927135
-0.115385674 0.12947533 -0.027220389 -0.072939545 0.0798433 -0.16390654 0.1682754 0.016157033
0.14203417 -0.071748294 0.12317531 -0.12393838 0.031346057 -0.05449379 -0.16632673 0.1884525
0.07793164 0.1470683 0.15250877 -0.025422396 0.006376517 0.019831963 -0.13489312 -0.04488282
00000000: 89a8 85bd 2556 563d 4115 093e 349f bb3d
00000010: 3496 373d e090 313e fb70 79bd d0e0 01bc
00000020: 534f ecbd 2e95 043e 4bfd debc 5461 95bd
00000030: e284 a33d 1ed7 27be 6350 2c3e c15b 843c
00000040: 6871 113e c5f0 92bd 5643 fc3d 68d3 fdbd
00000050: b964 003d e134 5fbd 8e51 2abe b1f9 403e
00000060: a09a 9f3d 1399 163e 422b 1c3e a142 d0bc
00000070: 1af2 d03b a476 a23c 6c21 0abe 0cd7 37bd
